…
tsv

layout: exp4, no max word counttotal number of reviews:136904
total number of labels:136904

Fitting time: 5.97s
Training time: 10.44

max num words (vocab size) 36850

Shape of x_train: (109524, 1000)
Shape of y_train: (109524, 5)
Shape of x_val: (27380, 1000)
Shape of y_val: (27380, 5)

vocab size: 36850
word embedding coverage: 0.5193758480325644

Model Summary:
_________________________________________________________________
Layer (type)                 Output Shape              Param #   
=================================================================
embedding_2 (Embedding)      (None, 1000, 300)         11055000  
_________________________________________________________________
conv1d_1 (Conv1D)            (None, 996, 128)          192128    
_________________________________________________________________
max_pooling1d_1 (MaxPooling1 (None, 199, 128)          0         
_________________________________________________________________
conv1d_2 (Conv1D)            (None, 195, 128)          82048     
_________________________________________________________________
max_pooling1d_2 (MaxPooling1 (None, 39, 128)           0         
_________________________________________________________________
flatten_1 (Flatten)          (None, 4992)              0         
_________________________________________________________________
dense_1 (Dense)              (None, 128)               639104    
_________________________________________________________________
dense_2 (Dense)              (None, 128)               16512     
_________________________________________________________________
dense_3 (Dense)              (None, 5)                 645       
=================================================================
Total params: 11,985,437
Trainable params: 11,985,437
Non-trainable params: 0
_____________________________________________________

Training time: 10865.31

Eval time: 166.58
score:0.9011271606578367
acc:0.6488677867143323
mse:0.10728869629742195
cosine:-0.7182100379876275

Evaluating TEST model class prediction
predict time:165.8
…
